parapred.pt (torch_old, 6093 bytes, 6 tensors)

weight f4 [10, 36]
0.0034643505 0.22242422 0.008582258 -0.0104785925 -0.54305595 0.3745293 0.38785148 0.13336948
-0.29295436 -0.61452395 -0.054697003 -0.38205758 0.07053572 -0.016610254 0.3242831 -0.095390625
-0.8060302 0.019999385 0.80325514 0.11656869 -0.15369202 -0.020039849 0.64965713 -1.0939363
-0.676131 0.084449135 0.9799042 -0.10850377 -0.31371912 1.411713 -0.11062041 1.2917618
-0.7050587 -0.31071842 -0.81076914 -0.23981571 -0.07301835 0.097608455 -0.0055681737 -0.09782306
-0.36167485 0.12469907 0.120149724 -0.11681222 -0.08055131 -0.4438308 0.018835828 -0.3601057
-0.082876526 0.043529052 0.11765278 0.08588742 -0.4716134 -0.19172613 0.5084919 0.17262883
-0.23416512 -0.15804207 0.40328458 -0.6428031 -0.35720378 0.008291945 0.80187845 -0.21470037
-0.32754558 1.2836696 -0.16826716 0.9225263 -0.28070664 -0.22349477 -0.6902037 -0.1139927
0.007811128 0.13340855 0.20983334 -0.035109643 -0.34963465 0.3626874 0.057845306 0.09160553
-0.27798897 -0.3701029 0.13200481 -0.37555963 0.022981899 0.02301978 0.18543991 -0.21000952
-0.59192073 -0.22383037 0.66562164 0.28653497 -0.38113984 -0.04527113 0.5065372 -0.98066384
-0.51419276 -0.03614914 0.7919527 -0.14389016 -0.2729927 1.2644668 -0.25248265 0.9732241
-0.41641062 -0.292801 -0.6964172 -0.24422657 -0.93725145 -1.1749021 -0.18162575 -0.51632226
0.5837459 -1.183509 -1.0681732 0.22542213 -0.5851905 1.1366812 -1.2691268 0.84230196
0.5851545 0.05947837 -1.2513086 -0.24237333 1.1048019 0.34113964 -1.4784504 -0.95309556
1.2575194 0.47674075 -1.3176206 1.6702209 1.4984943 -0.6797987 -1.569035 0.20299107
0.7908067 -1.7638905 0.9819304 -1.4565432 1.0906249 1.0078967 1.2403907 1.1612811
-0.13036433 -0.24569994 -0.29577932 -0.041871484 0.60092443 -0.57464415 -0.32475653 -0.26725152
0.36675313 0.39944917 -0.25344476 0.22228403 -0.1718212 0.047552247 -0.5398375 -0.1334329
0.8349848 0.23612358 -0.7917099 -0.20370664 0.23014826 0.0054641436 -0.6073976 1.0601535
0.6298083 -0.27805495 -0.79662174 0.08354198 0.5775106 -1.1597806 -0.11660597 -1.1428936
0.56594616 0.45190558 0.6791934 0.4977281 -1.1258641 -1.0957339 -0.35365918 -0.722873
-0.10684487 -1.3203765 -0.75485206 0.16045928 -1.0368088 1.0505816 -1.2265383 0.96736187
0.41166568 -0.53499734 -1.1476015 0.9879474 1.2750237 0.4394505 -1.5050775 -0.8007406
1.4881064 0.788474 -1.2782851 1.579201 1.4234047 0.1019446 -1.5093728 0.45803165
0.82672554 -1.6928203 1.2721208 -1.6561463 1.3280704 0.7905809 1.2000134 1.1145298
-1.0243281 -1.1724802 -0.028996069 -0.50450635 0.7151028 -1.200834 -1.1288112 0.1055726
-0.6422055 1.0843506 -1.0226789 0.52555335 0.6559253 -0.2287746 -1.4817618 -0.49566054
1.0234418 0.65261686 -1.3487025 -1.0437806 1.1936916 0.513545 -1.4033941 1.5059106
1.3246527 -0.73633975 -1.4018335 0.16311611 0.92924446 -1.4935075 0.8573037 -1.5178981
1.0639201 1.1105548 1.1795365 1.4156243 -0.51833946 -0.35006613 -0.25532693 -0.17461449
00000000: 280a 633b 2dc3 633e 999c 0c3c 67ae 2bbc
00000010: b705 0bbf 4ec2 bf3e 7894 c63e 0292 083e
00000020: 1dfe 95be 7151 1dbf f709 60bd 0d9d c3be
00000030: 0875 903d 3a12 88bc 6f08 a63e 295c c3bd
00000040: ff57 4ebf c0d5 a33c 21a2 4d3f 91bb ee3d
00000050: 7161 1dbe 9c2a a4bc ee4f 263f 1b06 8cbf
00000060: ec16 2dbf abf3 ac3d 00db 7a3f 3937 debd
00000070: cb9f a0be 03b3 b43f f48c e2bd 7358 a53f
00000080: ba7e 34bf 7c16 9fbe 918e 4fbf 4092 75be
00000090: a58a 95bd f1e6 c73d 3a75 b6bb 7557 c8bd
000000a0: 722d b9be 3a62 ff3d 0f11 f63d 3f3b efbd
000000b0: 16f8 a4bd ca3d e3be 984d 9a3c c65f b8be
000000c0: 2bbb a9bd 854b 323d f1f3 f03d bee5 af3d
000000d0: 5077 f1be db53 44be 862c 023f 9dc5 303e
000000e0: fbc8 6fbe c8d5 21be 517b ce3e be8e 24bf
000000f0: 6ae3 b6be f0da 073c e847 4d3f 6ada 5bbe
00000100: 0eb4 a7be 494f a43f 3a4e 2cbe af2a 6c3f
00000110: c8b8 8fbe d0db 64be 31b1 30bf 0175 e9bd
00000120: 7ef4 ff3b 409c 083e 8dde 563e 21cf 0fbd
00000130: 5003 b3be 2ab2 b93e 33ef 6c3d ae9b bb3d
00000140: 9254 8ebe 217e bdbe 452c 073e 5a49 c0be
00000150: 8944 bc3c fa93 bc3c f6e3 3d3e bc0c 57be
00000160: 1e88 17bf ca33 65be 2e66 2a3f b6b4 923e
00000170: c324 c3be 386e 39bd 6cac 013f c90c 7bbf
00000180: 23a2 03bf 1f11 14bd 6abd 4a3f f157 13be
00000190: b3c5 8bbe 0cda a13f 6845 81be 3725 793f
000001a0: c633 d5be 03ea 95be 6648 32bf 8816 7abe
000001b0: b6ef 6fbf 3163 96bf 1afc 39be b22d 04bf
000001c0: 5f70 153f 397d 97bf e6b9 88bf 0fd5 663e
000001d0: 0bcf 15bf c57e 913f bf72 a2bf 1aa1 573f
000001e0: afcc 153f 979f 733d e12a a0bf b730 78be
000001f0: 266a 8d3f dba9 ae3e dd3d bdbf 12fe 73bf
00000200: 65f6 a03f 5d17 f43e cba7 a8bf ccc9 d53f
00000210: a9ce bf3f 4a07 2ebf 24d6 c8bf e4dc 4f3e
00000220: 4f72 4a3f 2ac7 e1bf ca5f 7b3f 0270 babf
00000230: 9999 8b3f c202 813f 1fc5 9e3f dca4 943f
00000240: 3a7e 05be c498 7bbe 6370 97be 6f81 2bbd
00000250: 2fd6 193f e11b 13bf 7d46 a6be 31d5 88be
00000260: 11c7 bb3e 9a84 cc3e 83c3 81be 6d9e 633e
00000270: e6f1 2fbe 25c6 423d ca32 0abf a2a2 08be
00000280: 90c1 553f 61ca 713e 80ad 4abf 7998 50be
00000290: fcab 6b3e 8f0c b33b 697e 1bbf 1cb3 873f
000002a0: 1e3b 213f 385d 8ebe 67ef 4bbf 0f18 ab3d
000002b0: bcd7 133f b173 94bf 1ccf eebd 564a 92bf
000002c0: d9e1 103f 2b60 e73e 9edf 2d3f 38d6 fe3e
000002d0: 511c 90bf 0241 8cbf d112 b5be 340e 39bf
000002e0: 7cd1 dabd 1902 a9bf fc3d 41bf 704f 243e
000002f0: 27b6 84bf 7579 863f 35ff 9cbf 07a5 773f
00000300: d8c5 d23e 96f5 08bf 9be4 92bf 1fea 7c3f
00000310: fa33 a33f a8ff e03e 61a6 c0bf 56fd 4cbf
00000320: 457a be3f 6fd9 493f d99e a3bf 4223 ca3f
00000330: 2032 b63f 55c8 d03d 2133 c1bf 2083 ea3e
00000340: 49a4 533f 56ae d8bf dbd4 a23f 9afc d3bf
00000350: 36fe a93f 8363 4a3f 0a9a 993f eaa8 8e3f
00000360: 2f1d 83bf d513 96bf 2a89 edbc 5427 01bf
00000370: fa10 373f eeb4 99bf e37c 90bf 7336 d83d
00000380: 9467 24bf 00cc 8a3f 24e7 82bf aa8a 063f
00000390: b8ea 273f e443 6abe 5faa bdbf 38c7 fdbe
000003a0: 2400 833f e611 273f 49a2 acbf 9a9a 85bf
000003b0: e3ca 983f af77 033f 6ba2 b3bf aec1 c03f
000003c0: 388e a93f c380 3cbf 486f b3bf e907 273e
000003d0: f7e2 6d3f 412b bfbf 4178 5b3f 7c4a c2bf
000003e0: 892e 883f a926 8e3f 0dfb 963f 2d33 b53f
000003f0: e5b1 04bf de3b b3be 36ba 82be 24ce 32be

bias f4 [10]
-0.13393839 -0.036668573 0.05646091 -0.22465655 0.089117624 -0.32422543 -0.2684685 -0.0048694084
0.078384735 -0.08111355
00000000: 2527 09be c931 16bd 8e43 673d 5e0c 66be
00000010: 4d83 b63d e000 a6be b474 89be 8f8f 9fbb
00000020: 2d88 a03d dc1e a6bd

weight f4 [10, 10]
0.255591 0.30388537 0.30802956 -0.534957 -0.45913887 -0.05651938 -0.20004742 -0.32613492
-0.12808397 -0.22967131 0.24902584 0.12236781 -0.07985419 -0.13312931 0.06777862 -0.23155898
-0.15577774 -0.014558247 -0.22062272 -0.061286084 0.08688986 0.1482342 0.12898056 0.0723644
0.092654556 0.57207346 0.31956694 0.067831054 -0.4559627 0.18616551 0.095021 0.05155007
0.027234903 -0.13709441 -0.2540197 -0.54628426 -0.5395235 -0.36034524 0.27418777 0.0009954205
-0.2767965 -0.31274685 -0.20574965 -0.16438733 -0.22520746 -0.18595134 0.01503197 0.23488528
-0.16038384 0.056828115 -0.5882061 -0.33243075 -0.538178 0.49354616 0.027808756 0.7463697
0.53226876 0.00894725 -0.33868566 0.49324846 0.31432673 0.2952891 0.32683754 -0.18202673
-0.3570108 -0.21935773 -0.061971195 0.16276649 -0.03593829 -0.50487536 -0.3872234 -0.30649972
-0.15609616 0.36011317 0.31922448 0.13779673 0.41724116 0.1430021 -0.321391 0.5364189
-0.40167913 0.10188826 -0.19075929 0.33335882 0.44701666 0.27751157 0.20852372 0.23368247
-0.21792448 0.609425 0.1153496 0.28392228 0.29215333 -0.06361139 -0.37990046 -0.23329568
-0.097056344 0.12076129 0.33514345 -0.300354
00000000: d3dc 823e dd96 9b3e 0db6 9d3e f1f2 08bf
00000010: 4014 ebbe de80 67bd 3bd9 4cbe 28fb a6be
00000020: 7228 03be f52e 6bbe a100 7f3e f99b fa3d
00000030: 988a a3bd 0d53 08be 84cf 8a3d cc1d 6dbe
00000040: 3384 1fbe b785 6ebc ecea 61be 1e07 7bbd
00000050: 50f3 b13d b5ca 173e 7b13 043e c933 943d
00000060: acc1 bd3d 6873 123f 479e a33e 02eb 8a3d
00000070: f173 e9be 2ca2 3e3e 5f9a c23d 2b26 533d
00000080: bb1b df3c 7a62 0cbe df0e 82be 49d9 0bbf
00000090: 361e 0abf 2c7f b8be 5762 8c3e c578 823a
000000a0: 45b8 8dbe 5b20 a0be 09b0 52be 2755 28be
000000b0: c99c 66be 076a 3ebe a748 763c c485 703e
000000c0: a93b 24be 99c4 683d ad94 16bf 5d34 aabe
000000d0: 09c6 09bf 15b2 fc3e 30cf e33c 1612 3f3f
000000e0: c442 083f 7d97 123c 3568 adbe 108b fc3e
000000f0: 6fef a03e 2230 973e 4057 a73e 3765 3abe
00000100: 1fca b6be 509f 60be 82d5 7dbd 42ac 263e
00000110: 0734 13bd 833f 01bf 2542 c6be 88ed 9cbe
00000120: acd7 1fbe c160 b83e 6471 a33e 961a 0d3e
00000130: a2a0 d53e 246f 123e 5c8d a4be c052 093f
00000140: e3a8 cdbe cbaa d03d 6756 43be 02ae aa3e
00000150: 5edf e43e ff15 8e3e 3e87 553e 754a 6f3e
00000160: 9827 5fbe 4703 1c3f 693c ec3d 435e 913e
00000170: 1f95 953e b046 82bd 5082 c2be 10e5 6ebe
00000180: 7ac5 c6bd b251 f73d ec97 ab3e 00c8 99be

bias f4 [10]
0.048836123 0.19604424 -0.20426042 -0.024254233 -0.24482633 -0.14046435 -0.0068228184 0.03160686
-0.17612927 -0.15616955
00000000: 6308 483d d2bf 483e a529 51be d0b0 c6bc
00000010: c1b3 7abe e3d5 0fbe f391 dfbb 3276 013d
00000020: 3b5b 34be e9ea 1fbe

weight f4 [2, 10]
-0.08134099 0.015434642 0.3798456 -0.27407685 0.21804321 0.18558761 -0.19372357 0.36611828
-0.06940448 0.045609128 0.31899342 0.057944875 0.012119704 0.21269174 0.21154912 -0.07243084
0.2494865 -0.1896467 -0.37929073 0.23872413
00000000: 1b96 a6bd 95e1 7c3c 1f7b c23e cd53 8cbe
00000010: b846 5f3e ae0a 3e3e 795f 46be db73 bb3e
00000020: f023 8ebd a3d0 3a3d 1b53 a33e 9b57 6d3d
00000030: b991 463c ddcb 593e 55a0 583e 9f56 94bd
00000040: 6479 7f3e bf32 42be 6532 c2be 1974 743e

bias f4 [2]
0.015324369 0.19267377
00000000: 1013 7b3c 464c 453e
